Chapter10/Artifacts/cifar10.tflite (tflite, 81208 bytes, 10 tensors)

model/dense/MatMul i1 [10, 3072] scale=0.0037163224 zero_point=0
0	0x06	0.022297934
1	0xe5	-0.1003407
2	0xfd	-0.011148967
3	0x19	0.09290806
4	0x09	0.0334469
5	0x0b	0.040879548
6	0xe9	-0.085475415
7	0xe8	-0.089191735
8	0x0c	0.044595867
9	0x1e	0.11148967
10	0x15	0.07804277
11	0x06	0.022297934
12	0x0e	0.052028514
13	0xfa	-0.022297934
14	0xd6	-0.15608554
15	0x06	0.022297934
16	0xdf	-0.122638635
17	0x00	0.0
18	0x39	0.21183038
19	0x0b	0.040879548
20	0xec	-0.07432645
21	0x33	0.18953244
22	0x23	0.13007128
23	0x3c	0.22297934
24	0xea	-0.081759095
25	0xf4	-0.044595867
26	0xf6	-0.037163224
27	0x18	0.089191735
28	0xed	-0.07061013
29	0x16	0.081759095
30	0xec	-0.07432645
31	0xd3	-0.16723451
32	0x20	0.118922316
33	0xec	-0.07432645
34	0x14	0.07432645
35	0xfb	-0.018581612
36	0x2a	0.15608554
37	0x23	0.13007128
38	0x15	0.07804277
39	0xc5	-0.21926302
40	0x0f	0.055744834
41	0x29	0.15236922
42	0xee	-0.0668938
43	0x0c	0.044595867
44	0x10	0.059461158
45	0x25	0.13750392
46	0xf2	-0.052028514
47	0xf3	-0.04831219
48	0x00	0.0
49	0xcd	-0.18953244
50	0x01	0.0037163224
51	0xe9	-0.085475415
52	0x08	0.029730579
53	0xf0	-0.059461158
54	0x05	0.018581612
55	0x0a	0.037163224
56	0x0b	0.040879548
57	0x0a	0.037163224
58	0x11	0.06317748
59	0x13	0.07061013
60	0xfe	-0.0074326447
61	0xe3	-0.10777335
62	0x00	0.0
63	0x1f	0.115205996
64	0xd7	-0.15236922
65	0xf7	-0.0334469
66	0x0d	0.04831219
67	0xec	-0.07432645
68	0xe8	-0.089191735
69	0xbf	-0.24156095
70	0x1b	0.1003407
71	0xed	-0.07061013
72	0xec	-0.07432645
73	0x00	0.0
74	0xfd	-0.011148967
75	0x15	0.07804277
76	0x11	0.06317748
77	0xcd	-0.18953244
78	0x1d	0.10777335
79	0x0f	0.055744834
80	0x1f	0.115205996
81	0xe9	-0.085475415
82	0xb0	-0.2973058
83	0xe7	-0.09290806
84	0xd5	-0.15980186
85	0x0c	0.044595867
86	0xee	-0.0668938
87	0xf0	-0.059461158
88	0x27	0.14493658
89	0x11	0.06317748
90	0x05	0.018581612
91	0xca	-0.2006814
92	0x22	0.12635496
93	0x02	0.0074326447
94	0xc5	-0.21926302
95	0x2f	0.17466715
96	0x1a	0.09662438
97	0x2e	0.17095083
98	0x01	0.0037163224
99	0x10	0.059461158
100	0x06	0.022297934
101	0x05	0.018581612
102	0xf4	-0.044595867
103	0xf6	-0.037163224
104	0xd6	-0.15608554
105	0x24	0.1337876
106	0xf6	-0.037163224
107	0x0c	0.044595867
108	0xfc	-0.014865289
109	0xef	-0.06317748
110	0x33	0.18953244
111	0x25	0.13750392
112	0xf7	-0.0334469
113	0x38	0.20811406
114	0x0c	0.044595867
115	0x2f	0.17466715
116	0x94	-0.4013628
117	0x14	0.07432645
118	0xd6	-0.15608554
119	0xfd	-0.011148967
120	0x12	0.0668938
121	0xde	-0.12635496
122	0xfc	-0.014865289
123	0xf8	-0.029730579
124	0xea	-0.081759095
125	0x13	0.07061013
126	0x0c	0.044595867
127	0x03	0.011148967
128	0xf4	-0.044595867
129	0x05	0.018581612
130	0xee	-0.0668938
131	0x14	0.07432645
132	0x22	0.12635496
133	0xe4	-0.10405703
134	0xee	-0.0668938
135	0xe8	-0.089191735
136	0x06	0.022297934
137	0x04	0.014865289
138	0x0d	0.04831219
139	0xf1	-0.055744834
140	0xf4	-0.044595867
141	0x01	0.0037163224
142	0x0c	0.044595867
143	0xd0	-0.17838347
144	0x2b	0.15980186
145	0x07	0.026014257
146	0xd1	-0.17466715
147	0xfc	-0.014865289
148	0xd2	-0.17095083
149	0x0d	0.04831219
150	0xe3	-0.10777335
151	0x15	0.07804277
152	0xe3	-0.10777335
153	0x23	0.13007128
154	0xf7	-0.0334469
155	0xc5	-0.21926302
156	0xf2	-0.052028514
157	0xff	-0.0037163224
158	0xeb	-0.07804277
159	0xf3	-0.04831219
160	0xe1	-0.115205996
161	0x12	0.0668938
162	0x17	0.085475415
163	0xd2	-0.17095083
164	0x04	0.014865289
165	0x37	0.20439772
166	0x21	0.122638635
167	0x0e	0.052028514
168	0x1d	0.10777335
169	0x06	0.022297934
170	0x04	0.014865289
171	0xf9	-0.026014257
172	0x00	0.0
173	0xea	-0.081759095
174	0x23	0.13007128
175	0xd2	-0.17095083
176	0xc0	-0.23784463
177	0x00	0.0
178	0x1f	0.115205996
179	0xf4	-0.044595867
180	0x62	0.36419958
181	0x01	0.0037163224
182	0xf7	-0.0334469
183	0x17	0.085475415
184	0xf9	-0.026014257
185	0xe0	-0.118922316
186	0xd6	-0.15608554
187	0xed	-0.07061013
188	0x2c	0.16351819
189	0x19	0.09290806
190	0xf0	-0.059461158
191	0xc0	-0.23784463
192	0x07	0.026014257
193	0x0a	0.037163224
194	0x11	0.06317748
195	0x06	0.022297934
196	0x10	0.059461158
197	0xf7	-0.0334469
198	0x1e	0.11148967
199	0xcc	-0.19324876
200	0xd1	-0.17466715
201	0x14	0.07432645
202	0x15	0.07804277
203	0x01	0.0037163224
204	0x04	0.014865289
205	0x03	0.011148967
206	0xd9	-0.14493658
207	0x06	0.022297934
208	0xeb	-0.07804277
209	0x29	0.15236922
210	0xfd	-0.011148967
211	0xf8	-0.029730579
212	0x2e	0.17095083
213	0x0e	0.052028514
214	0x1f	0.115205996
215	0xfe	-0.0074326447
216	0x0c	0.044595867
217	0xf7	-0.0334469
218	0x13	0.07061013
219	0x04	0.014865289
220	0x18	0.089191735
221	0xf8	-0.029730579
222	0x10	0.059461158
223	0x1a	0.09662438
224	0x1e	0.11148967
225	0xee	-0.0668938
226	0xdb	-0.13750392
227	0xe1	-0.115205996
228	0x06	0.022297934
229	0xef	-0.06317748
230	0x12	0.0668938
231	0xe0	-0.118922316
232	0xea	-0.081759095
233	0x04	0.014865289
234	0xf9	-0.026014257
235	0xd2	-0.17095083
236	0x19	0.09290806
237	0x3a	0.2155467
238	0xfb	-0.018581612
239	0xa9	-0.32332003
240	0x02	0.0074326447
241	0x07	0.026014257
242	0x0c	0.044595867
243	0x09	0.0334469
244	0xe3	-0.10777335
245	0x0f	0.055744834
246	0xf7	-0.0334469
247	0x1d	0.10777335
248	0x0c	0.044595867
249	0x05	0.018581612
250	0x19	0.09290806
251	0xe1	-0.115205996
252	0xe6	-0.09662438
253	0xec	-0.07432645
254	0xfe	-0.0074326447
255	0x13	0.07061013

model/conv0_dwsc5/Conv2D i1 [192, 1, 1, 96]
0	0xd6	-42
1	0xa4	-92
2	0x3f	63
3	0x56	86
4	0xcd	-51
5	0xe6	-26
6	0x86	-122
7	0xbb	-69
8	0x0d	13
9	0xe1	-31
10	0x89	-119
11	0xce	-50
12	0x2c	44
13	0x22	34
14	0x14	20
15	0x83	-125
16	0x23	35
17	0xee	-18
18	0x12	18
19	0x96	-106
20	0xe6	-26
21	0x24	36
22	0xc7	-57
23	0x12	18
24	0x22	34
25	0x2f	47
26	0xd5	-43
27	0xaa	-86
28	0xd8	-40
29	0xdc	-36
30	0xfe	-2
31	0x13	19
32	0xfd	-3
33	0x0f	15
34	0xfb	-5
35	0xf5	-11
36	0x92	-110
37	0x1e	30
38	0xc7	-57
39	0xb9	-71
40	0x30	48
41	0xfd	-3
42	0x4e	78
43	0x02	2
44	0x30	48
45	0xb7	-73
46	0x04	4
47	0x0a	10
48	0x4e	78
49	0x1d	29
50	0xf5	-11
51	0xfb	-5
52	0x75	117
53	0x3d	61
54	0xf4	-12
55	0xff	-1
56	0xef	-17
57	0xb5	-75
58	0xf7	-9
59	0x2e	46
60	0x0c	12
61	0xf6	-10
62	0x2b	43
63	0xfa	-6
64	0x06	6
65	0x63	99
66	0xe1	-31
67	0xec	-20
68	0xbe	-66
69	0x0f	15
70	0xed	-19
71	0xb1	-79
72	0xf8	-8
73	0x34	52
74	0x81	-127
75	0x9a	-102
76	0xa1	-95
77	0xe2	-30
78	0xef	-17
79	0x2a	42
80	0xa4	-92
81	0x27	39
82	0x0d	13
83	0x92	-110
84	0x06	6
85	0x01	1
86	0xf9	-7
87	0xec	-20
88	0xb0	-80
89	0x13	19
90	0x25	37
91	0x51	81
92	0x00	0
93	0x2c	44
94	0x1b	27
95	0x28	40
96	0x9b	-101
97	0x1a	26
98	0xff	-1
99	0x12	18
100	0x20	32
101	0x19	25
102	0x2c	44
103	0x3f	63
104	0x42	66
105	0x1c	28
106	0x05	5
107	0xcf	-49
108	0xf0	-16
109	0xfd	-3
110	0xd2	-46
111	0xa8	-88
112	0x10	16
113	0x03	3
114	0x0a	10
115	0xcc	-52
116	0xf3	-13
117	0xf6	-10
118	0x96	-106
119	0x7d	125
120	0x12	18
121	0xda	-38
122	0xd1	-47
123	0x4a	74
124	0x2a	42
125	0xf9	-7
126	0xb3	-77
127	0xf2	-14
128	0xdf	-33
129	0x2b	43
130	0xcd	-51
131	0x9f	-97
132	0x07	7
133	0x81	-127
134	0xff	-1
135	0xbb	-69
136	0x1e	30
137	0xfa	-6
138	0x2c	44
139	0x33	51
140	0x1c	28
141	0xbf	-65
142	0xff	-1
143	0xa8	-88
144	0xce	-50
145	0xbd	-67
146	0x0b	11
147	0xa2	-94
148	0xee	-18
149	0xd9	-39
150	0x07	7
151	0x00	0
152	0xd6	-42
153	0xcf	-49
154	0x25	37
155	0x21	33
156	0x1d	29
157	0xd3	-45
158	0xbe	-66
159	0x30	48
160	0xf2	-14
161	0x63	99
162	0x1a	26
163	0x20	32
164	0xd7	-41
165	0xa6	-90
166	0xed	-19
167	0xf3	-13
168	0xd9	-39
169	0x38	56
170	0xde	-34
171	0x1f	31
172	0x0b	11
173	0x25	37
174	0x1b	27
175	0x47	71
176	0xf3	-13
177	0x2a	42
178	0x32	50
179	0xfb	-5
180	0xcf	-49
181	0xeb	-21
182	0xee	-18
183	0xed	-19
184	0xe3	-29
185	0x01	1
186	0xff	-1
187	0x14	20
188	0xc6	-58
189	0xce	-50
190	0x0d	13
191	0xe6	-26
192	0xaf	-81
193	0x24	36
194	0x3c	60
195	0x20	32
196	0x1c	28
197	0x26	38
198	0xd7	-41
199	0x43	67
200	0xe7	-25
201	0x47	71
202	0x0e	14
203	0x1e	30
204	0x23	35
205	0x21	33
206	0xda	-38
207	0xc7	-57
208	0xfa	-6
209	0xf3	-13
210	0x4d	77
211	0x01	1
212	0x2b	43
213	0x01	1
214	0xe5	-27
215	0x17	23
216	0xc3	-61
217	0x81	-127
218	0x09	9
219	0xff	-1
220	0xcf	-49
221	0x38	56
222	0xf2	-14
223	0xd6	-42
224	0xf1	-15
225	0xf8	-8
226	0xd6	-42
227	0xf9	-7
228	0xff	-1
229	0x19	25
230	0x27	39
231	0x2b	43
232	0x26	38
233	0x8b	-117
234	0xfa	-6
235	0x31	49
236	0x0c	12
237	0xee	-18
238	0x46	70
239	0xeb	-21
240	0x04	4
241	0x59	89
242	0xd6	-42
243	0xef	-17
244	0x06	6
245	0xb6	-74
246	0xdf	-33
247	0xf8	-8
248	0xe5	-27
249	0xf4	-12
250	0xe3	-29
251	0xfb	-5
252	0x0b	11
253	0x22	34
254	0xf1	-15
255	0x2b	43

model/bn0_dwsc5/FusedBatchNormV3;model/dwc0_dwsc5/depthwise;model/dwc0_dwsc5/BiasAdd/ReadVariableOp;model/dwc0_dwsc5/BiasAdd i1 [1, 3, 3, 96]
0	0x81	-127
1	0x28	40
2	0x0e	14
3	0x37	55
4	0xda	-38
5	0xe2	-30
6	0x27	39
7	0xe0	-32
8	0x59	89
9	0x08	8
10	0x11	17
11	0x49	73
12	0xe2	-30
13	0x19	25
14	0x3c	60
15	0x76	118
16	0xf8	-8
17	0xf7	-9
18	0xb7	-73
19	0xfc	-4
20	0x59	89
21	0x55	85
22	0xfe	-2
23	0xca	-54
24	0x7f	127
25	0xfa	-6
26	0x29	41
27	0xcf	-49
28	0xbc	-68
29	0x06	6
30	0xfc	-4
31	0x24	36
32	0x48	72
33	0x11	17
34	0xc3	-61
35	0x57	87
36	0x0f	15
37	0x7f	127
38	0xb2	-78
39	0x5a	90
40	0x73	115
41	0x46	70
42	0x2e	46
43	0x7f	127
44	0x55	85
45	0x8f	-113
46	0xf3	-13
47	0x2c	44
48	0x7f	127
49	0x7f	127
50	0x4c	76
51	0x1e	30
52	0x30	48
53	0x27	39
54	0x16	22
55	0x3b	59
56	0x7f	127
57	0x0d	13
58	0x7f	127
59	0x82	-126
60	0x4e	78
61	0xd6	-42
62	0x16	22
63	0x7f	127
64	0x3c	60
65	0xea	-22
66	0x0e	14
67	0x45	69
68	0x32	50
69	0x41	65
70	0xbd	-67
71	0x09	9
72	0x70	112
73	0x11	17
74	0x01	1
75	0x24	36
76	0x1f	31
77	0x45	69
78	0x74	116
79	0x32	50
80	0x2f	47
81	0xf6	-10
82	0x19	25
83	0xfd	-3
84	0x0f	15
85	0x10	16
86	0x6a	106
87	0x2e	46
88	0x34	52
89	0x00	0
90	0x7f	127
91	0x54	84
92	0xf1	-15
93	0xe0	-32
94	0x5e	94
95	0x2f	47
96	0x4b	75
97	0x63	99
98	0x7a	122
99	0xcd	-51
100	0x06	6
101	0x9a	-102
102	0x4f	79
103	0x9d	-99
104	0x32	50
105	0x4f	79
106	0xde	-34
107	0x49	73
108	0xca	-54
109	0x2a	42
110	0xea	-22
111	0x7f	127
112	0x05	5
113	0x7f	127
114	0x81	-127
115	0x5d	93
116	0x65	101
117	0xeb	-21
118	0x31	49
119	0xdd	-35
120	0x32	50
121	0x01	1
122	0x7f	127
123	0x0d	13
124	0xcd	-51
125	0xff	-1
126	0xc5	-59
127	0x9a	-102
128	0x75	117
129	0x35	53
130	0xdb	-37
131	0xf2	-14
132	0x09	9
133	0x3d	61
134	0x81	-127
135	0x25	37
136	0x05	5
137	0x31	49
138	0x0d	13
139	0x6e	110
140	0xe2	-30
141	0xd7	-41
142	0xe2	-30
143	0x03	3
144	0x2a	42
145	0xcc	-52
146	0x59	89
147	0x7f	127
148	0x4f	79
149	0x14	20
150	0x93	-109
151	0x38	56
152	0x08	8
153	0xf3	-13
154	0x2d	45
155	0xce	-50
156	0x30	48
157	0xc5	-59
158	0xfa	-6
159	0x55	85
160	0x3f	63
161	0x7f	127
162	0x0f	15
163	0x30	48
164	0xd3	-45
165	0x4e	78
166	0xbd	-67
167	0x5b	91
168	0x2d	45
169	0x22	34
170	0x2f	47
171	0x07	7
172	0x23	35
173	0x7f	127
174	0xf5	-11
175	0x15	21
176	0xcf	-49
177	0x31	49
178	0xe8	-24
179	0x32	50
180	0xfe	-2
181	0x17	23
182	0x07	7
183	0x51	81
184	0x23	35
185	0x7f	127
186	0x0d	13
187	0x01	1
188	0x96	-106
189	0x40	64
190	0x1e	30
191	0x39	57
192	0x5c	92
193	0x44	68
194	0x03	3
195	0xa1	-95
196	0x46	70
197	0xb2	-78
198	0xfe	-2
199	0x9d	-99
200	0x44	68
201	0x7f	127
202	0xe2	-30
203	0x1c	28
204	0xb7	-73
205	0x81	-127
206	0xe0	-32
207	0x43	67
208	0x56	86
209	0x66	102
210	0x0f	15
211	0x1d	29
212	0x81	-127
213	0xae	-82
214	0xd6	-42
215	0xd3	-45
216	0x44	68
217	0x1f	31
218	0x55	85
219	0xf8	-8
220	0xf5	-11
221	0x21	33
222	0xce	-50
223	0xec	-20
224	0x30	48
225	0x7f	127
226	0x29	41
227	0xf4	-12
228	0x15	21
229	0x1d	29
230	0xb2	-78
231	0xeb	-21
232	0x81	-127
233	0x09	9
234	0xc0	-64
235	0x17	23
236	0xab	-85
237	0xc4	-60
238	0xf4	-12
239	0x0b	11
240	0x12	18
241	0x9e	-98
242	0xb0	-80
243	0x4c	76
244	0x0f	15
245	0x9c	-100
246	0x0a	10
247	0x35	53
248	0x1c	28
249	0xf1	-15
250	0xda	-38
251	0x07	7
252	0x9e	-98
253	0xc3	-61
254	0x26	38
255	0x16	22

model/conv0_dwsc4/Conv2D i1 [96, 1, 1, 48]
0	0xf5	-11
1	0x4e	78
2	0xfe	-2
3	0xe8	-24
4	0xd8	-40
5	0xe2	-30
6	0x4e	78
7	0x7f	127
8	0x1f	31
9	0x26	38
10	0x0e	14
11	0xf9	-7
12	0x3b	59
13	0x1b	27
14	0x21	33
15	0x2b	43
16	0x54	84
17	0xf5	-11
18	0xce	-50
19	0x03	3
20	0xb8	-72
21	0x02	2
22	0xf5	-11
23	0xd6	-42
24	0xdd	-35
25	0xf2	-14
26	0xea	-22
27	0x03	3
28	0xe7	-25
29	0x29	41
30	0x09	9
31	0x0e	14
32	0x14	20
33	0xe4	-28
34	0x29	41
35	0xea	-22
36	0xe8	-24
37	0x04	4
38	0xcd	-51
39	0x3c	60
40	0x0a	10
41	0xe7	-25
42	0xd5	-43
43	0x09	9
44	0xf4	-12
45	0x03	3
46	0x43	67
47	0xca	-54
48	0xab	-85
49	0xb7	-73
50	0xc5	-59
51	0x1c	28
52	0xf9	-7
53	0xef	-17
54	0xfe	-2
55	0x7e	126
56	0x7e	126
57	0x3f	63
58	0xee	-18
59	0xef	-17
60	0xbd	-67
61	0x0c	12
62	0xe4	-28
63	0xc1	-63
64	0x56	86
65	0x8d	-115
66	0x9f	-97
67	0x84	-124
68	0x59	89
69	0xf6	-10
70	0xf2	-14
71	0x20	32
72	0x59	89
73	0xfa	-6
74	0x85	-123
75	0xee	-18
76	0x2a	42
77	0x99	-103
78	0xbc	-68
79	0x7f	127
80	0x06	6
81	0x99	-103
82	0xc4	-60
83	0xa9	-87
84	0xed	-19
85	0x31	49
86	0x49	73
87	0x0b	11
88	0xb0	-80
89	0x17	23
90	0xac	-84
91	0x26	38
92	0x23	35
93	0xec	-20
94	0x2d	45
95	0xd5	-43
96	0x10	16
97	0xdd	-35
98	0xc3	-61
99	0x16	22
100	0xb9	-71
101	0x0a	10
102	0xdb	-37
103	0xd9	-39
104	0xd4	-44
105	0xa6	-90
106	0xf9	-7
107	0x1a	26
108	0x01	1
109	0xcc	-52
110	0xfd	-3
111	0x13	19
112	0x22	34
113	0x23	35
114	0xf6	-10
115	0x6f	111
116	0xf3	-13
117	0x0a	10
118	0x31	49
119	0xa6	-90
120	0xf1	-15
121	0x39	57
122	0x36	54
123	0xf5	-11
124	0xc7	-57
125	0xb1	-79
126	0xc8	-56
127	0x01	1
128	0x30	48
129	0x27	39
130	0x7f	127
131	0x51	81
132	0xe7	-25
133	0x28	40
134	0xfb	-5
135	0x4b	75
136	0xdb	-37
137	0xdf	-33
138	0xd8	-40
139	0x17	23
140	0xf6	-10
141	0xe5	-27
142	0x42	66
143	0x36	54
144	0xc4	-60
145	0xbf	-65
146	0x25	37
147	0x60	96
148	0xe3	-29
149	0xab	-85
150	0xcd	-51
151	0x71	113
152	0x41	65
153	0xd6	-42
154	0xad	-83
155	0x1e	30
156	0x1d	29
157	0x35	53
158	0xed	-19
159	0xff	-1
160	0x16	22
161	0xd4	-44
162	0xec	-20
163	0x15	21
164	0x2d	45
165	0x88	-120
166	0x2c	44
167	0x67	103
168	0xb3	-77
169	0xef	-17
170	0x0a	10
171	0x81	-127
172	0x01	1
173	0x44	68
174	0xb0	-80
175	0x30	48
176	0x13	19
177	0xdb	-37
178	0xba	-70
179	0xcd	-51
180	0xc2	-62
181	0x05	5
182	0x96	-106
183	0xeb	-21
184	0xdc	-36
185	0xcb	-53
186	0x25	37
187	0x4b	75
188	0xaa	-86
189	0x11	17
190	0xb8	-72
191	0xfb	-5
192	0x1d	29
193	0xec	-20
194	0x43	67
195	0x50	80
196	0x9c	-100
197	0x81	-127
198	0x19	25
199	0x12	18
200	0xc0	-64
201	0x77	119
202	0x75	117
203	0x58	88
204	0xa6	-90
205	0x37	55
206	0x06	6
207	0x93	-109
208	0x2d	45
209	0x85	-123
210	0xb1	-79
211	0xec	-20
212	0x38	56
213	0x48	72
214	0xaa	-86
215	0xdb	-37
216	0x95	-107
217	0x29	41
218	0x15	21
219	0xfa	-6
220	0xff	-1
221	0xab	-85
222	0xd9	-39
223	0xfb	-5
224	0xc9	-55
225	0x5b	91
226	0x11	17
227	0x1e	30
228	0xf5	-11
229	0xe1	-31
230	0x60	96
231	0x17	23
232	0x89	-119
233	0xf6	-10
234	0x35	53
235	0x42	66
236	0x50	80
237	0xf8	-8
238	0x54	84
239	0xcb	-53
240	0xff	-1
241	0x27	39
242	0xd8	-40
243	0x92	-110
244	0xe5	-27
245	0xf8	-8
246	0xa7	-89
247	0x1b	27
248	0x15	21
249	0x3d	61
250	0xd5	-43
251	0xea	-22
252	0x05	5
253	0x24	36
254	0xda	-38
255	0xd4	-44

model/bn0_dwsc4/FusedBatchNormV3;model/dwc0_dwsc4/depthwise;model/dwc0_dwsc4/BiasAdd/ReadVariableOp;model/dwc0_dwsc4/BiasAdd i1 [1, 3, 3, 48]
0	0xe6	-26
1	0xeb	-21
2	0x1c	28
3	0x3a	58
4	0xdd	-35
5	0x0e	14
6	0x11	17
7	0xd3	-45
8	0xf1	-15
9	0x23	35
10	0xee	-18
11	0x11	17
12	0xad	-83
13	0x07	7
14	0xd9	-39
15	0xe0	-32
16	0x46	70
17	0x33	51
18	0xab	-85
19	0xf6	-10
20	0xf6	-10
21	0x20	32
22	0xc9	-55
23	0xd0	-48
24	0x10	16
25	0x42	66
26	0xd4	-44
27	0x18	24
28	0xed	-19
29	0xc2	-62
30	0xa1	-95
31	0xc0	-64
32	0x1c	28
33	0x19	25
34	0xfe	-2
35	0x0b	11
36	0x20	32
37	0x22	34
38	0x4d	77
39	0xdb	-37
40	0x07	7
41	0x05	5
42	0x88	-120
43	0xf5	-11
44	0xe4	-28
45	0xcb	-53
46	0x7c	124
47	0x19	25
48	0xfb	-5
49	0x74	116
50	0x0b	11
51	0x45	69
52	0x12	18
53	0x12	18
54	0x4b	75
55	0x1e	30
56	0xf8	-8
57	0xcd	-51
58	0xc0	-64
59	0xbd	-67
60	0x04	4
61	0x98	-104
62	0x42	66
63	0xc2	-62
64	0x32	50
65	0xf7	-9
66	0xf8	-8
67	0x0b	11
68	0x67	103
69	0xc9	-55
70	0x35	53
71	0xe6	-26
72	0x18	24
73	0x3c	60
74	0xf5	-11
75	0x7f	127
76	0xe7	-25
77	0x31	49
78	0x81	-127
79	0xd3	-45
80	0xb6	-74
81	0xda	-38
82	0xfc	-4
83	0xba	-70
84	0x64	100
85	0x0e	14
86	0x3f	63
87	0x94	-108
88	0x7f	127
89	0xf1	-15
90	0x93	-109
91	0x11	17
92	0x0e	14
93	0x27	39
94	0x09	9
95	0xf3	-13
96	0x54	84
97	0xe8	-24
98	0xec	-20
99	0x07	7
100	0x0c	12
101	0xe5	-27
102	0xdf	-33
103	0xf3	-13
104	0x16	22
105	0xdc	-36
106	0xf2	-14
107	0x81	-127
108	0x81	-127
109	0x16	22
110	0x0e	14
111	0xff	-1
112	0x33	51
113	0x16	22
114	0xcb	-53
115	0xe8	-24
116	0xdf	-33
117	0xfb	-5
118	0xda	-38
119	0xf2	-14
120	0xe5	-27
121	0xf4	-12
122	0xf6	-10
123	0x2e	46
124	0xf8	-8
125	0xea	-22
126	0xe0	-32
127	0x1e	30
128	0xea	-22
129	0x15	21
130	0x1b	27
131	0xfe	-2
132	0x2e	46
133	0xe2	-30
134	0xe2	-30
135	0x81	-127
136	0x00	0
137	0x19	25
138	0xf3	-13
139	0xf4	-12
140	0x13	19
141	0x24	36
142	0xf2	-14
143	0xef	-17
144	0xfd	-3
145	0x1c	28
146	0x03	3
147	0x28	40
148	0xac	-84
149	0x01	1
150	0x06	6
151	0x28	40
152	0x7f	127
153	0x7f	127
154	0x3c	60
155	0x1f	31
156	0xd6	-42
157	0x7f	127
158	0x95	-107
159	0x4e	78
160	0x41	65
161	0xfb	-5
162	0xf1	-15
163	0x7f	127
164	0xcd	-51
165	0x7f	127
166	0x2c	44
167	0xd9	-39
168	0x15	21
169	0xde	-34
170	0xfd	-3
171	0xcd	-51
172	0xf2	-14
173	0x81	-127
174	0x3b	59
175	0xef	-17
176	0x47	71
177	0xbc	-68
178	0x19	25
179	0xe5	-27
180	0xd5	-43
181	0xd3	-45
182	0x2f	47
183	0xe7	-25
184	0x1e	30
185	0x23	35
186	0xd6	-42
187	0x3f	63
188	0x3b	59
189	0x81	-127
190	0xcf	-49
191	0x28	40
192	0x1d	29
193	0x7f	127
194	0x0c	12
195	0x7f	127
196	0xce	-50
197	0x10	16
198	0x7f	127
199	0x7f	127
200	0xd7	-41
201	0xfe	-2
202	0x0e	14
203	0xec	-20
204	0x03	3
205	0x15	21
206	0x54	84
207	0x44	68
208	0x9b	-101
209	0xb6	-74
210	0x57	87
211	0x43	67
212	0x7f	127
213	0xc1	-63
214	0x7f	127
215	0x7f	127
216	0x7f	127
217	0x7f	127
218	0xf6	-10
219	0x00	0
220	0x81	-127
221	0xfa	-6
222	0xbe	-66
223	0x87	-121
224	0xfc	-4
225	0x81	-127
226	0x8d	-115
227	0x81	-127
228	0xf0	-16
229	0x0e	14
230	0x7f	127
231	0xda	-38
232	0x36	54
233	0x7f	127
234	0x81	-127
235	0x7f	127
236	0xf6	-10
237	0x08	8
238	0x81	-127
239	0xa5	-91
240	0x7f	127
241	0x04	4
242	0x00	0
243	0xde	-34
244	0x21	33
245	0xe4	-28
246	0xee	-18
247	0x3d	61
248	0xbe	-66
249	0x08	8
250	0xbf	-65
251	0xf8	-8
252	0xb1	-79
253	0x7f	127
254	0x7f	127
255	0x7f	127

model/conv0_dwsc3/Conv2D i1 [48, 1, 1, 16]
0	0xf2	-14
1	0x81	-127
2	0xde	-34
3	0x5a	90
4	0x1b	27
5	0x34	52
6	0x4c	76
7	0x18	24
8	0x36	54
9	0x9c	-100
10	0x87	-121
11	0x49	73
12	0x0f	15
13	0x8f	-113
14	0x78	120
15	0xc0	-64
16	0xf3	-13
17	0x6f	111
18	0x13	19
19	0x16	22
20	0x36	54
21	0xd6	-42
22	0xbc	-68
23	0xbe	-66
24	0x1a	26
25	0x11	17
26	0x43	67
27	0xbf	-65
28	0xf0	-16
29	0x7f	127
30	0x17	23
31	0x0d	13
32	0xa6	-90
33	0x6b	107
34	0xba	-70
35	0xcc	-52
36	0xf6	-10
37	0xf4	-12
38	0x02	2
39	0x0d	13
40	0x7f	127
41	0x28	40
42	0x72	114
43	0xea	-22
44	0xc4	-60
45	0xf3	-13
46	0xe0	-32
47	0xd3	-45
48	0xdd	-35
49	0x8d	-115
50	0xa0	-96
51	0xe7	-25
52	0xa0	-96
53	0x33	51
54	0xbd	-67
55	0xe2	-30
56	0xcf	-49
57	0xa4	-92
58	0x16	22
59	0x49	73
60	0x7f	127
61	0xba	-70
62	0xc6	-58
63	0x08	8
64	0x1c	28
65	0x18	24
66	0x1c	28
67	0x2d	45
68	0xcd	-51
69	0xfe	-2
70	0xe0	-32
71	0xcf	-49
72	0x0d	13
73	0xfd	-3
74	0x3f	63
75	0x7f	127
76	0x0b	11
77	0xdf	-33
78	0x0b	11
79	0xe2	-30
80	0xf6	-10
81	0xfd	-3
82	0xce	-50
83	0xaf	-81
84	0x14	20
85	0x5e	94
86	0xf5	-11
87	0x81	-127
88	0x4c	76
89	0x5f	95
90	0xba	-70
91	0x9d	-99
92	0x46	70
93	0xdc	-36
94	0x0b	11
95	0xfa	-6
96	0x7a	122
97	0x1a	26
98	0x09	9
99	0x10	16
100	0x58	88
101	0xcf	-49
102	0x0b	11
103	0xe1	-31
104	0x0a	10
105	0x42	66
106	0x81	-127
107	0x09	9
108	0x46	70
109	0xc7	-57
110	0xeb	-21
111	0x0e	14
112	0x02	2
113	0x94	-108
114	0x32	50
115	0x2f	47
116	0xf7	-9
117	0x0c	12
118	0xe7	-25
119	0xd5	-43
120	0xe5	-27
121	0xe6	-26
122	0x93	-109
123	0x16	22
124	0x2f	47
125	0x13	19
126	0xf0	-16
127	0x7f	127
128	0xe0	-32
129	0x42	66
130	0xc8	-56
131	0xf6	-10
132	0xe5	-27
133	0xd7	-41
134	0x2f	47
135	0x01	1
136	0x03	3
137	0xf0	-16
138	0x4c	76
139	0xf2	-14
140	0xdd	-35
141	0x02	2
142	0x7f	127
143	0xaf	-81
144	0x7c	124
145	0xe1	-31
146	0x70	112
147	0xda	-38
148	0xe3	-29
149	0x08	8
150	0xe5	-27
151	0x5c	92
152	0x04	4
153	0x63	99
154	0xa9	-87
155	0xb4	-76
156	0xaf	-81
157	0x49	73
158	0xb7	-73
159	0x7f	127
160	0x3c	60
161	0xd7	-41
162	0xe2	-30
163	0xe3	-29
164	0xdc	-36
165	0x7b	123
166	0x22	34
167	0x81	-127
168	0x35	53
169	0xe7	-25
170	0xb6	-74
171	0x24	36
172	0xf3	-13
173	0xdc	-36
174	0x25	37
175	0xe5	-27
176	0x30	48
177	0x0d	13
178	0x24	36
179	0xc9	-55
180	0xec	-20
181	0x02	2
182	0x09	9
183	0xad	-83
184	0x08	8
185	0x29	41
186	0xd7	-41
187	0xd6	-42
188	0xde	-34
189	0x7f	127
190	0x37	55
191	0x1c	28
192	0x97	-105
193	0x4b	75
194	0x1f	31
195	0xde	-34
196	0x8c	-116
197	0xf6	-10
198	0xd0	-48
199	0xe9	-23
200	0x06	6
201	0x34	52
202	0x48	72
203	0x3c	60
204	0xac	-84
205	0x81	-127
206	0x0f	15
207	0xe1	-31
208	0xf3	-13
209	0xc1	-63
210	0xff	-1
211	0xdf	-33
212	0xd4	-44
213	0xc4	-60
214	0x37	55
215	0x0a	10
216	0xf0	-16
217	0xd1	-47
218	0xcb	-53
219	0xce	-50
220	0x2d	45
221	0x7f	127
222	0xe9	-23
223	0x04	4
224	0xed	-19
225	0x15	21
226	0xbb	-69
227	0x19	25
228	0xfd	-3
229	0xde	-34
230	0x76	118
231	0x81	-127
232	0xb6	-74
233	0x3b	59
234	0x09	9
235	0xcb	-53
236	0xf0	-16
237	0x0c	12
238	0xfb	-5
239	0xfe	-2
240	0xe3	-29
241	0xfc	-4
242	0x1c	28
243	0x35	53
244	0x3c	60
245	0xda	-38
246	0x4a	74
247	0xfc	-4
248	0x2a	42
249	0x7f	127
250	0x2b	43
251	0x24	36
252	0xe5	-27
253	0x15	21
254	0x34	52
255	0x3d	61

model/bn0_dwsc3/FusedBatchNormV3;model/dwc0_dwsc3/depthwise;model/dwc0_dwsc3/BiasAdd/ReadVariableOp;model/dwc0_dwsc3/BiasAdd i1 [1, 3, 3, 16]
0	0x31	49
1	0x60	96
2	0xe3	-29
3	0xc1	-63
4	0x57	87
5	0x17	23
6	0xe6	-26
7	0x7f	127
8	0x37	55
9	0x1c	28
10	0x13	19
11	0x1d	29
12	0x23	35
13	0xfc	-4
14	0xe5	-27
15	0xdf	-33
16	0x1a	26
17	0x46	70
18	0x2a	42
19	0xf3	-13
20	0x7f	127
21	0xb4	-76
22	0xe7	-25
23	0x63	99
24	0x79	121
25	0x26	38
26	0x17	23
27	0x49	73
28	0xe2	-30
29	0x00	0
30	0xfd	-3
31	0x81	-127
32	0x2b	43
33	0x3c	60
34	0x0a	10
35	0xbe	-66
36	0x26	38
37	0x31	49
38	0x15	21
39	0xe2	-30
40	0x3b	59
41	0xf4	-12
42	0x1b	27
43	0x94	-108
44	0xe3	-29
45	0x0e	14
46	0x71	113
47	0xb6	-74
48	0x7f	127
49	0xa1	-95
50	0xf4	-12
51	0xc9	-55
52	0x9e	-98
53	0x17	23
54	0xcf	-49
55	0x55	85
56	0x7f	127
57	0x63	99
58	0xc2	-62
59	0xff	-1
60	0xe4	-28
61	0x31	49
62	0xf2	-14
63	0xfc	-4
64	0x53	83
65	0x95	-107
66	0x1f	31
67	0xac	-84
68	0xf1	-15
69	0x7f	127
70	0x81	-127
71	0x3a	58
72	0xfb	-5
73	0x09	9
74	0x81	-127
75	0x7f	127
76	0x81	-127
77	0x17	23
78	0xff	-1
79	0xc4	-60
80	0x4a	74
81	0x81	-127
82	0xaf	-81
83	0x81	-127
84	0x68	104
85	0x05	5
86	0xe9	-23
87	0xff	-1
88	0xcd	-51
89	0xf7	-9
90	0xf9	-7
91	0x48	72
92	0xe2	-30
93	0x17	23
94	0x7f	127
95	0xab	-85
96	0xc2	-62
97	0xbe	-66
98	0x28	40
99	0xbd	-67
100	0x9a	-102
101	0x4a	74
102	0xfe	-2
103	0x27	39
104	0x35	53
105	0x3c	60
106	0xf0	-16
107	0x26	38
108	0x14	20
109	0x4e	78
110	0xf4	-12
111	0x51	81
112	0xbe	-66
113	0x8e	-114
114	0x7f	127
115	0x13	19
116	0xa6	-90
117	0x41	65
118	0xd7	-41
119	0x20	32
120	0xb0	-80
121	0x7f	127
122	0xbd	-67
123	0xb8	-72
124	0xd1	-47
125	0x7f	127
126	0x1e	30
127	0x3a	58
128	0x62	98
129	0xbc	-68
130	0xbb	-69
131	0x14	20
132	0xf6	-10
133	0xef	-17
134	0xfc	-4
135	0x19	25
136	0xdf	-33
137	0x2a	42
138	0xf3	-13
139	0x63	99
140	0xb5	-75
141	0x4e	78
142	0x14	20
143	0x18	24

model/conv0_dwsc2/Conv2D i1 [16, 1, 1, 16]
0	0xd3	-45
1	0xbe	-66
2	0xf6	-10
3	0xc3	-61
4	0x77	119
5	0x12	18
6	0xbf	-65
7	0xe9	-23
8	0xfa	-6
9	0xfe	-2
10	0x4a	74
11	0x3a	58
12	0x7f	127
13	0x34	52
14	0xde	-34
15	0xe5	-27
16	0x28	40
17	0xfe	-2
18	0x0f	15
19	0xf8	-8
20	0x00	0
21	0x7f	127
22	0xf3	-13
23	0x1d	29
24	0x07	7
25	0x24	36
26	0xfc	-4
27	0xed	-19
28	0xea	-22
29	0xfc	-4
30	0x04	4
31	0xdb	-37
32	0x36	54
33	0xa1	-95
34	0xea	-22
35	0x45	69
36	0xe5	-27
37	0xfd	-3
38	0x11	17
39	0x31	49
40	0x5c	92
41	0xfe	-2
42	0x42	66
43	0x31	49
44	0x81	-127
45	0x5a	90
46	0xfd	-3
47	0x6c	108
48	0x7f	127
49	0x4e	78
50	0x91	-111
51	0xd4	-44
52	0x9e	-98
53	0xab	-85
54	0x1f	31
55	0xff	-1
56	0x91	-111
57	0xd7	-41
58	0xa2	-94
59	0x8f	-113
60	0xcf	-49
61	0xdb	-37
62	0xdd	-35
63	0xac	-84
64	0xb0	-80
65	0x77	119
66	0x2a	42
67	0xe2	-30
68	0x07	7
69	0xfd	-3
70	0x1a	26
71	0xeb	-21
72	0xee	-18
73	0x7f	127
74	0xca	-54
75	0x06	6
76	0x0f	15
77	0x57	87
78	0xea	-22
79	0xfd	-3
80	0x7f	127
81	0xd0	-48
82	0xed	-19
83	0xca	-54
84	0xda	-38
85	0x10	16
86	0x05	5
87	0xaa	-86
88	0xc0	-64
89	0x2b	43
90	0x4d	77
91	0xfb	-5
92	0x0c	12
93	0x53	83
94	0x3f	63
95	0xf0	-16
96	0x82	-126
97	0xef	-17
98	0xa9	-87
99	0xbf	-65
100	0x5c	92
101	0x52	82
102	0xfe	-2
103	0x04	4
104	0xf1	-15
105	0x83	-125
106	0xcf	-49
107	0x50	80
108	0x28	40
109	0x42	66
110	0x7f	127
111	0x65	101
112	0x2e	46
113	0x03	3
114	0xf3	-13
115	0x4e	78
116	0xcb	-53
117	0x7f	127
118	0x28	40
119	0x0c	12
120	0xfd	-3
121	0x3d	61
122	0x19	25
123	0x41	65
124	0xc9	-55
125	0x02	2
126	0x9e	-98
127	0xe0	-32
128	0x7f	127
129	0x2b	43
130	0x67	103
131	0xf9	-7
132	0xc3	-61
133	0x12	18
134	0xd5	-43
135	0xcd	-51
136	0x39	57
137	0xd1	-47
138	0x22	34
139	0xdd	-35
140	0x9c	-100
141	0x5f	95
142	0x4d	77
143	0x2f	47
144	0xee	-18
145	0xef	-17
146	0xe5	-27
147	0x19	25
148	0x29	41
149	0xc4	-60
150	0xf7	-9
151	0x7f	127
152	0xf6	-10
153	0x2f	47
154	0xde	-34
155	0xe6	-26
156	0xda	-38
157	0xe6	-26
158	0x02	2
159	0x57	87
160	0xbc	-68
161	0xe7	-25
162	0xf5	-11
163	0x33	51
164	0x16	22
165	0x7f	127
166	0xd2	-46
167	0x40	64
168	0x2c	44
169	0x0f	15
170	0x58	88
171	0xb9	-71
172	0x03	3
173	0x05	5
174	0x16	22
175	0xc5	-59
176	0xf9	-7
177	0x22	34
178	0xfe	-2
179	0x0a	10
180	0xfb	-5
181	0xd6	-42
182	0xed	-19
183	0xa5	-91
184	0x37	55
185	0xfc	-4
186	0x81	-127
187	0x75	117
188	0x07	7
189	0xcc	-52
190	0xf7	-9
191	0xda	-38
192	0xeb	-21
193	0x4d	77
194	0x00	0
195	0xdc	-36
196	0xab	-85
197	0xd2	-46
198	0x81	-127
199	0x0d	13
200	0xca	-54
201	0xc1	-63
202	0xa9	-87
203	0x0d	13
204	0x06	6
205	0x2f	47
206	0x3e	62
207	0x2f	47
208	0xf5	-11
209	0xf2	-14
210	0xfe	-2
211	0xea	-22
212	0x15	21
213	0x81	-127
214	0xe6	-26
215	0xcf	-49
216	0x41	65
217	0xce	-50
218	0xfd	-3
219	0xad	-83
220	0x39	57
221	0xde	-34
222	0x50	80
223	0x3d	61
224	0xd0	-48
225	0x4e	78
226	0x7f	127
227	0x03	3
228	0xdb	-37
229	0xf6	-10
230	0x10	16
231	0x00	0
232	0x31	49
233	0x03	3
234	0xe9	-23
235	0xf1	-15
236	0x3e	62
237	0x11	17
238	0x02	2
239	0xf1	-15
240	0x9c	-100
241	0x6f	111
242	0x5d	93
243	0xea	-22
244	0xee	-18
245	0x60	96
246	0xb6	-74
247	0x17	23
248	0xed	-19
249	0xe2	-30
250	0x08	8
251	0x68	104
252	0x81	-127
253	0xff	-1
254	0x11	17
255	0x25	37

model/bn0_dwsc2/FusedBatchNormV3;model/dwc0_dwsc2/depthwise;model/dwc0_dwsc2/BiasAdd/ReadVariableOp;model/dwc0_dwsc2/BiasAdd;model/dwc0_dwsc3/depthwise i1 [1, 3, 3, 16]
0	0xcd	-51
1	0x81	-127
2	0x81	-127
3	0xb0	-80
4	0xba	-70
5	0xb1	-79
6	0x5a	90
7	0x27	39
8	0x95	-107
9	0x19	25
10	0xe8	-24
11	0xb7	-73
12	0x1a	26
13	0x21	33
14	0xd8	-40
15	0xa5	-91
16	0x65	101
17	0xce	-50
18	0x3c	60
19	0xe9	-23
20	0x6c	108
21	0x29	41
22	0x7f	127
23	0x81	-127
24	0xfe	-2
25	0x18	24
26	0x41	65
27	0x7f	127
28	0xee	-18
29	0x5e	94
30	0x91	-111
31	0x9d	-99
32	0xfa	-6
33	0x49	73
34	0x0f	15
35	0xff	-1
36	0xa9	-87
37	0x04	4
38	0xf7	-9
39	0x27	39
40	0xde	-34
41	0xb4	-76
42	0xc4	-60
43	0x33	51
44	0xff	-1
45	0x81	-127
46	0x41	65
47	0x81	-127
48	0x5e	94
49	0x0d	13
50	0x3b	59
51	0x2b	43
52	0x81	-127
53	0xae	-82
54	0xdf	-33
55	0x0f	15
56	0xd3	-45
57	0xb5	-75
58	0x6f	111
59	0xb2	-78
60	0x14	20
61	0xd0	-48
62	0x0a	10
63	0x41	65
64	0x43	67
65	0xa9	-87
66	0x5a	90
67	0x81	-127
68	0x00	0
69	0x7f	127
70	0x0a	10
71	0x3d	61
72	0xe8	-24
73	0x7f	127
74	0x10	16
75	0xda	-38
76	0x7f	127
77	0xb8	-72
78	0x7f	127
79	0x69	105
80	0x81	-127
81	0xb9	-71
82	0x9d	-99
83	0x31	49
84	0x33	51
85	0xfb	-5
86	0xeb	-21
87	0xcc	-52
88	0x8f	-113
89	0x26	38
90	0x81	-127
91	0x25	37
92	0x55	85
93	0x8c	-116
94	0x55	85
95	0xe4	-28
96	0x73	115
97	0x05	5
98	0x34	52
99	0x42	66
100	0x0e	14
101	0xd8	-40
102	0x55	85
103	0xfc	-4
104	0xfb	-5
105	0xde	-34
106	0x5a	90
107	0x0d	13
108	0xcd	-51
109	0xed	-19
110	0x16	22
111	0x15	21
112	0xa2	-94
113	0xa9	-87
114	0xe0	-32
115	0xd8	-40
116	0xca	-54
117	0x2c	44
118	0x2e	46
119	0xfa	-6
120	0x0a	10
121	0xb4	-76
122	0x10	16
123	0xa3	-93
124	0xe6	-26
125	0xb8	-72
126	0xd5	-43
127	0x5b	91
128	0xf3	-13
129	0x13	19
130	0x1c	28
131	0x9a	-102
132	0xbb	-69
133	0xd9	-39
134	0xfe	-2
135	0x18	24
136	0x7f	127
137	0x63	99
138	0xf9	-7
139	0x32	50
140	0x11	17
141	0x4c	76
142	0x9a	-102
143	0x3a	58

model/conv1/Conv2D i1 [16, 3, 3, 3]
0	0x5c	92
1	0x41	65
2	0x7f	127
3	0x2b	43
4	0xd0	-48
5	0x06	6
6	0x3d	61
7	0xb1	-79
8	0xd8	-40
9	0x04	4
10	0xb4	-76
11	0xb6	-74
12	0x9d	-99
13	0x8b	-117
14	0xcd	-51
15	0x2d	45
16	0xc1	-63
17	0x09	9
18	0xc9	-55
19	0x02	2
20	0x18	24
21	0x3c	60
22	0xf9	-7
23	0x32	50
24	0x2d	45
25	0x33	51
26	0xf5	-11
27	0x5c	92
28	0xb6	-74
29	0xdf	-33
30	0x16	22
31	0x12	18
32	0xde	-34
33	0x6b	107
34	0xf5	-11
35	0xed	-19
36	0x2c	44
37	0x83	-125
38	0xcb	-53
39	0x3e	62
40	0xb8	-72
41	0xab	-85
42	0xd3	-45
43	0xab	-85
44	0xd3	-45
45	0x5b	91
46	0x46	70
47	0x6e	110
48	0x4d	77
49	0x94	-108
50	0x9a	-102
51	0x44	68
52	0xa5	-91
53	0x81	-127
54	0x32	50
55	0x38	56
56	0x5c	92
57	0xaf	-81
58	0xcb	-53
59	0x1f	31
60	0x08	8
61	0xf0	-16
62	0x7f	127
63	0xa0	-96
64	0xf4	-12
65	0xed	-19
66	0xc3	-61
67	0xc5	-59
68	0x42	66
69	0xc9	-55
70	0x11	17
71	0x0e	14
72	0xbb	-69
73	0xde	-34
74	0x36	54
75	0xc2	-62
76	0x26	38
77	0x4b	75
78	0x0a	10
79	0x1d	29
80	0x06	6
81	0x11	17
82	0xfc	-4
83	0xf1	-15
84	0x05	5
85	0x4b	75
86	0x12	18
87	0xc1	-63
88	0x2f	47
89	0xdf	-33
90	0xda	-38
91	0x7f	127
92	0x20	32
93	0xff	-1
94	0x17	23
95	0x3b	59
96	0x10	16
97	0xf0	-16
98	0x31	49
99	0xcd	-51
100	0x20	32
101	0xbd	-67
102	0x04	4
103	0xd4	-44
104	0xa9	-87
105	0xe6	-26
106	0xfb	-5
107	0xc0	-64
108	0xed	-19
109	0x9b	-101
110	0xa0	-96
111	0x55	85
112	0x0a	10
113	0x36	54
114	0x7f	127
115	0x0c	12
116	0xe0	-32
117	0xce	-50
118	0xdf	-33
119	0x07	7
120	0xef	-17
121	0x12	18
122	0x25	37
123	0x5e	94
124	0x84	-124
125	0xf0	-16
126	0x1f	31
127	0xfc	-4
128	0xaf	-81
129	0x7a	122
130	0xdc	-36
131	0x15	21
132	0x3d	61
133	0x4f	79
134	0x5b	91
135	0x0f	15
136	0x12	18
137	0xea	-22
138	0xfd	-3
139	0x9a	-102
140	0xeb	-21
141	0xe8	-24
142	0x52	82
143	0xe3	-29
144	0x54	84
145	0x3d	61
146	0x18	24
147	0x81	-127
148	0xb0	-80
149	0x8b	-117
150	0x2b	43
151	0x46	70
152	0x74	116
153	0x12	18
154	0xae	-82
155	0x0c	12
156	0xb7	-73
157	0xcc	-52
158	0xe5	-27
159	0x45	69
160	0x11	17
161	0x6b	107
162	0x41	65
163	0x54	84
164	0x42	66
165	0xd1	-47
166	0xef	-17
167	0x28	40
168	0x13	19
169	0xf0	-16
170	0x2e	46
171	0x56	86
172	0x57	87
173	0xf8	-8
174	0x2d	45
175	0xca	-54
176	0x42	66
177	0xc9	-55
178	0xa0	-96
179	0xf9	-7
180	0x1d	29
181	0xfb	-5
182	0x79	121
183	0x18	24
184	0x2b	43
185	0xf2	-14
186	0xc2	-62
187	0x81	-127
188	0x90	-112
189	0x3d	61
190	0x4d	77
191	0x45	69
192	0xdd	-35
193	0xcd	-51
194	0x06	6
195	0xeb	-21
196	0xc5	-59
197	0x04	4
198	0x23	35
199	0xef	-17
200	0x33	51
201	0x59	89
202	0x64	100
203	0x2c	44
204	0xcf	-49
205	0x9b	-101
206	0xc5	-59
207	0xa4	-92
208	0x81	-127
209	0xd3	-45
210	0x1d	29
211	0xe6	-26
212	0x18	24
213	0x52	82
214	0x32	50
215	0xe5	-27
216	0xa2	-94
217	0x42	66
218	0x00	0
219	0xb6	-74
220	0xe9	-23
221	0xef	-17
222	0x06	6
223	0x6f	111
224	0x05	5
225	0x4d	77
226	0x36	54
227	0x94	-108
228	0x39	57
229	0x27	39
230	0xc6	-58
231	0x5c	92
232	0x2e	46
233	0xa7	-89
234	0xe9	-23
235	0x45	69
236	0xed	-19
237	0x0a	10
238	0x10	16
239	0x92	-110
240	0x63	99
241	0x7f	127
242	0xa3	-93
243	0xdc	-36
244	0x2f	47
245	0x0d	13
246	0x03	3
247	0xb9	-71
248	0x0c	12
249	0x3a	58
250	0x3a	58
251	0xf5	-11
252	0xf4	-12
253	0xbd	-67
254	0x2d	45
255	0xde	-34
